saved_models/single_modality/cell_type_annotation/pretrained/mouse/models/mouse-Kidney.pt (torch, 207953 bytes, 14 tensors)

alpha f4 [15453, 1]
000000 00 00 80 3f 00 00 80 3f 00 00 80 3f 00 00 80 3f
       1.0 1.0 1.0 1.0
000010 00 00 80 3f 00 00 80 3f 00 00 80 3f 00 00 80 3f
       1.0 1.0 1.0 1.0
000020 00 00 80 3f 00 00 80 3f 00 00 80 3f 00 00 80 3f
       1.0 1.0 1.0 1.0
000030 00 00 80 3f 00 00 80 3f 00 00 80 3f 00 00 80 3f
       1.0 1.0 1.0 1.0
000040 00 00 80 3f 00 00 80 3f 00 00 80 3f 00 00 80 3f
       1.0 1.0 1.0 1.0
000050 00 00 80 3f 00 00 80 3f 00 00 80 3f 00 00 80 3f
       1.0 1.0 1.0 1.0
000060 00 00 80 3f 00 00 80 3f 00 00 80 3f 00 00 80 3f
       1.0 1.0 1.0 1.0
000070 00 00 80 3f 00 00 80 3f 00 00 80 3f 00 00 80 3f
       1.0 1.0 1.0 1.0
000080 00 00 80 3f 00 00 80 3f 00 00 80 3f 00 00 80 3f
       1.0 1.0 1.0 1.0
000090 00 00 80 3f 00 00 80 3f 00 00 80 3f 00 00 80 3f
       1.0 1.0 1.0 1.0
0000a0 00 00 80 3f 00 00 80 3f 00 00 80 3f 00 00 80 3f
       1.0 1.0 1.0 1.0
0000b0 00 00 80 3f 00 00 80 3f 00 00 80 3f 00 00 80 3f
       1.0 1.0 1.0 1.0
0000c0 00 00 80 3f 00 00 80 3f 00 00 80 3f 00 00 80 3f
       1.0 1.0 1.0 1.0
0000d0 00 00 80 3f 00 00 80 3f 00 00 80 3f 00 00 80 3f
       1.0 1.0 1.0 1.0
0000e0 00 00 80 3f 00 00 80 3f 00 00 80 3f 00 00 80 3f
       1.0 1.0 1.0 1.0
0000f0 00 00 80 3f 00 00 80 3f 00 00 80 3f 00 00 80 3f
       1.0 1.0 1.0 1.0
000100 00 00 80 3f 00 00 80 3f 00 00 80 3f 00 00 80 3f
       1.0 1.0 1.0 1.0
000110 00 00 80 3f 00 00 80 3f 00 00 80 3f 00 00 80 3f
       1.0 1.0 1.0 1.0
000120 00 00 80 3f 00 00 80 3f 00 00 80 3f 00 00 80 3f
       1.0 1.0 1.0 1.0
000130 00 00 80 3f 00 00 80 3f 00 00 80 3f 00 00 80 3f
       1.0 1.0 1.0 1.0
000140 00 00 80 3f 00 00 80 3f 00 00 80 3f 00 00 80 3f
       1.0 1.0 1.0 1.0
000150 00 00 80 3f 00 00 80 3f 00 00 80 3f 00 00 80 3f
       1.0 1.0 1.0 1.0
000160 00 00 80 3f 00 00 80 3f 00 00 80 3f 00 00 80 3f
       1.0 1.0 1.0 1.0
000170 00 00 80 3f 00 00 80 3f 00 00 80 3f 00 00 80 3f
       1.0 1.0 1.0 1.0
000180 00 00 80 3f 00 00 80 3f 00 00 80 3f 00 00 80 3f
       1.0 1.0 1.0 1.0
000190 00 00 80 3f 00 00 80 3f 00 00 80 3f 00 00 80 3f
       1.0 1.0 1.0 1.0
0001a0 00 00 80 3f 00 00 80 3f 00 00 80 3f 00 00 80 3f
       1.0 1.0 1.0 1.0
0001b0 00 00 80 3f 00 00 80 3f 00 00 80 3f 00 00 80 3f
       1.0 1.0 1.0 1.0
0001c0 00 00 80 3f 00 00 80 3f 00 00 80 3f 00 00 80 3f
       1.0 1.0 1.0 1.0
0001d0 00 00 80 3f 00 00 80 3f 00 00 80 3f 00 00 80 3f
       1.0 1.0 1.0 1.0
0001e0 00 00 80 3f 00 00 80 3f 00 00 80 3f 00 00 80 3f
       1.0 1.0 1.0 1.0
0001f0 00 00 80 3f 00 00 80 3f 00 00 80 3f 00 00 80 3f
       1.0 1.0 1.0 1.0
000200 00 00 80 3f 00 00 80 3f 00 00 80 3f 00 00 80 3f
       1.0 1.0 1.0 1.0
000210 00 00 80 3f 00 00 80 3f 00 00 80 3f 00 00 80 3f
       1.0 1.0 1.0 1.0
000220 00 00 80 3f 00 00 80 3f 00 00 80 3f 00 00 80 3f
       1.0 1.0 1.0 1.0
000230 00 00 80 3f 00 00 80 3f 00 00 80 3f 00 00 80 3f
       1.0 1.0 1.0 1.0
000240 00 00 80 3f 00 00 80 3f 00 00 80 3f 00 00 80 3f
       1.0 1.0 1.0 1.0
000250 00 00 80 3f 00 00 80 3f 00 00 80 3f 00 00 80 3f
       1.0 1.0 1.0 1.0
000260 00 00 80 3f 00 00 80 3f 00 00 80 3f 00 00 80 3f
       1.0 1.0 1.0 1.0
000270 00 00 80 3f 00 00 80 3f 00 00 80 3f 00 00 80 3f
       1.0 1.0 1.0 1.0
000280 00 00 80 3f 00 00 80 3f 00 00 80 3f 00 00 80 3f
       1.0 1.0 1.0 1.0
000290 00 00 80 3f 00 00 80 3f 00 00 80 3f 00 00 80 3f
       1.0 1.0 1.0 1.0
0002a0 00 00 80 3f 00 00 80 3f 00 00 80 3f 00 00 80 3f
       1.0 1.0 1.0 1.0
0002b0 00 00 80 3f 00 00 80 3f 00 00 80 3f 00 00 80 3f
       1.0 1.0 1.0 1.0
0002c0 00 00 80 3f 00 00 80 3f 00 00 80 3f 00 00 80 3f
       1.0 1.0 1.0 1.0
0002d0 00 00 80 3f 00 00 80 3f 00 00 80 3f 00 00 80 3f
       1.0 1.0 1.0 1.0
0002e0 00 00 80 3f 00 00 80 3f 00 00 80 3f 00 00 80 3f
       1.0 1.0 1.0 1.0
0002f0 00 00 80 3f 00 00 80 3f 00 00 80 3f 00 00 80 3f
       1.0 1.0 1.0 1.0
000300 00 00 80 3f 00 00 80 3f 00 00 80 3f 00 00 80 3f
       1.0 1.0 1.0 1.0
000310 00 00 80 3f 00 00 80 3f 00 00 80 3f 00 00 80 3f
       1.0 1.0 1.0 1.0
000320 00 00 80 3f 00 00 80 3f 00 00 80 3f 00 00 80 3f
       1.0 1.0 1.0 1.0
000330 00 00 80 3f 00 00 80 3f 00 00 80 3f 00 00 80 3f
       1.0 1.0 1.0 1.0
000340 00 00 80 3f 00 00 80 3f 00 00 80 3f 00 00 80 3f
       1.0 1.0 1.0 1.0
000350 00 00 80 3f 00 00 80 3f 00 00 80 3f 00 00 80 3f
       1.0 1.0 1.0 1.0
000360 00 00 80 3f 00 00 80 3f 00 00 80 3f 00 00 80 3f
       1.0 1.0 1.0 1.0
000370 00 00 80 3f 00 00 80 3f 00 00 80 3f 00 00 80 3f
       1.0 1.0 1.0 1.0
000380 00 00 80 3f 00 00 80 3f 00 00 80 3f 00 00 80 3f
       1.0 1.0 1.0 1.0
000390 00 00 80 3f 00 00 80 3f 00 00 80 3f 00 00 80 3f
       1.0 1.0 1.0 1.0
0003a0 00 00 80 3f 00 00 80 3f 00 00 80 3f 00 00 80 3f
       1.0 1.0 1.0 1.0
0003b0 00 00 80 3f 00 00 80 3f 00 00 80 3f 00 00 80 3f
       1.0 1.0 1.0 1.0
0003c0 00 00 80 3f 00 00 80 3f 00 00 80 3f 00 00 80 3f
       1.0 1.0 1.0 1.0
0003d0 00 00 80 3f 00 00 80 3f 00 00 80 3f 00 00 80 3f
       1.0 1.0 1.0 1.0
0003e0 00 00 80 3f 00 00 80 3f 00 00 80 3f 00 00 80 3f
       1.0 1.0 1.0 1.0
0003f0 00 00 80 3f 00 00 80 3f 00 00 80 3f 00 00 80 3f
       1.0 1.0 1.0 1.0

layers.0.alpha f4 [15453, 1]
000000 00 00 80 3f 00 00 80 3f 00 00 80 3f 00 00 80 3f
       1.0 1.0 1.0 1.0
000010 00 00 80 3f 00 00 80 3f 00 00 80 3f 00 00 80 3f
       1.0 1.0 1.0 1.0
000020 00 00 80 3f 00 00 80 3f 00 00 80 3f 00 00 80 3f
       1.0 1.0 1.0 1.0
000030 00 00 80 3f 00 00 80 3f 00 00 80 3f 00 00 80 3f
       1.0 1.0 1.0 1.0
000040 00 00 80 3f 00 00 80 3f 00 00 80 3f 00 00 80 3f
       1.0 1.0 1.0 1.0
000050 00 00 80 3f 00 00 80 3f 00 00 80 3f 00 00 80 3f
       1.0 1.0 1.0 1.0
000060 00 00 80 3f 00 00 80 3f 00 00 80 3f 00 00 80 3f
       1.0 1.0 1.0 1.0
000070 00 00 80 3f 00 00 80 3f 00 00 80 3f 00 00 80 3f
       1.0 1.0 1.0 1.0
000080 00 00 80 3f 00 00 80 3f 00 00 80 3f 00 00 80 3f
       1.0 1.0 1.0 1.0
000090 00 00 80 3f 00 00 80 3f 00 00 80 3f 00 00 80 3f
       1.0 1.0 1.0 1.0
0000a0 00 00 80 3f 00 00 80 3f 00 00 80 3f 00 00 80 3f
       1.0 1.0 1.0 1.0
0000b0 00 00 80 3f 00 00 80 3f 00 00 80 3f 00 00 80 3f
       1.0 1.0 1.0 1.0
0000c0 00 00 80 3f 00 00 80 3f 00 00 80 3f 00 00 80 3f
       1.0 1.0 1.0 1.0
0000d0 00 00 80 3f 00 00 80 3f 00 00 80 3f 00 00 80 3f
       1.0 1.0 1.0 1.0
0000e0 00 00 80 3f 00 00 80 3f 00 00 80 3f 00 00 80 3f
       1.0 1.0 1.0 1.0
0000f0 00 00 80 3f 00 00 80 3f 00 00 80 3f 00 00 80 3f
       1.0 1.0 1.0 1.0
000100 00 00 80 3f 00 00 80 3f 00 00 80 3f 00 00 80 3f
       1.0 1.0 1.0 1.0
000110 00 00 80 3f 00 00 80 3f 00 00 80 3f 00 00 80 3f
       1.0 1.0 1.0 1.0
000120 00 00 80 3f 00 00 80 3f 00 00 80 3f 00 00 80 3f
       1.0 1.0 1.0 1.0
000130 00 00 80 3f 00 00 80 3f 00 00 80 3f 00 00 80 3f
       1.0 1.0 1.0 1.0
000140 00 00 80 3f 00 00 80 3f 00 00 80 3f 00 00 80 3f
       1.0 1.0 1.0 1.0
000150 00 00 80 3f 00 00 80 3f 00 00 80 3f 00 00 80 3f
       1.0 1.0 1.0 1.0
000160 00 00 80 3f 00 00 80 3f 00 00 80 3f 00 00 80 3f
       1.0 1.0 1.0 1.0
000170 00 00 80 3f 00 00 80 3f 00 00 80 3f 00 00 80 3f
       1.0 1.0 1.0 1.0
000180 00 00 80 3f 00 00 80 3f 00 00 80 3f 00 00 80 3f
       1.0 1.0 1.0 1.0
000190 00 00 80 3f 00 00 80 3f 00 00 80 3f 00 00 80 3f
       1.0 1.0 1.0 1.0
0001a0 00 00 80 3f 00 00 80 3f 00 00 80 3f 00 00 80 3f
       1.0 1.0 1.0 1.0
0001b0 00 00 80 3f 00 00 80 3f 00 00 80 3f 00 00 80 3f
       1.0 1.0 1.0 1.0
0001c0 00 00 80 3f 00 00 80 3f 00 00 80 3f 00 00 80 3f
       1.0 1.0 1.0 1.0
0001d0 00 00 80 3f 00 00 80 3f 00 00 80 3f 00 00 80 3f
       1.0 1.0 1.0 1.0
0001e0 00 00 80 3f 00 00 80 3f 00 00 80 3f 00 00 80 3f
       1.0 1.0 1.0 1.0
0001f0 00 00 80 3f 00 00 80 3f 00 00 80 3f 00 00 80 3f
       1.0 1.0 1.0 1.0
000200 00 00 80 3f 00 00 80 3f 00 00 80 3f 00 00 80 3f
       1.0 1.0 1.0 1.0
000210 00 00 80 3f 00 00 80 3f 00 00 80 3f 00 00 80 3f
       1.0 1.0 1.0 1.0
000220 00 00 80 3f 00 00 80 3f 00 00 80 3f 00 00 80 3f
       1.0 1.0 1.0 1.0
000230 00 00 80 3f 00 00 80 3f 00 00 80 3f 00 00 80 3f
       1.0 1.0 1.0 1.0
000240 00 00 80 3f 00 00 80 3f 00 00 80 3f 00 00 80 3f
       1.0 1.0 1.0 1.0
000250 00 00 80 3f 00 00 80 3f 00 00 80 3f 00 00 80 3f
       1.0 1.0 1.0 1.0
000260 00 00 80 3f 00 00 80 3f 00 00 80 3f 00 00 80 3f
       1.0 1.0 1.0 1.0
000270 00 00 80 3f 00 00 80 3f 00 00 80 3f 00 00 80 3f
       1.0 1.0 1.0 1.0
000280 00 00 80 3f 00 00 80 3f 00 00 80 3f 00 00 80 3f
       1.0 1.0 1.0 1.0
000290 00 00 80 3f 00 00 80 3f 00 00 80 3f 00 00 80 3f
       1.0 1.0 1.0 1.0
0002a0 00 00 80 3f 00 00 80 3f 00 00 80 3f 00 00 80 3f
       1.0 1.0 1.0 1.0
0002b0 00 00 80 3f 00 00 80 3f 00 00 80 3f 00 00 80 3f
       1.0 1.0 1.0 1.0
0002c0 00 00 80 3f 00 00 80 3f 00 00 80 3f 00 00 80 3f
       1.0 1.0 1.0 1.0
0002d0 00 00 80 3f 00 00 80 3f 00 00 80 3f 00 00 80 3f
       1.0 1.0 1.0 1.0
0002e0 00 00 80 3f 00 00 80 3f 00 00 80 3f 00 00 80 3f
       1.0 1.0 1.0 1.0
0002f0 00 00 80 3f 00 00 80 3f 00 00 80 3f 00 00 80 3f
       1.0 1.0 1.0 1.0
000300 00 00 80 3f 00 00 80 3f 00 00 80 3f 00 00 80 3f
       1.0 1.0 1.0 1.0
000310 00 00 80 3f 00 00 80 3f 00 00 80 3f 00 00 80 3f
       1.0 1.0 1.0 1.0
000320 00 00 80 3f 00 00 80 3f 00 00 80 3f 00 00 80 3f
       1.0 1.0 1.0 1.0
000330 00 00 80 3f 00 00 80 3f 00 00 80 3f 00 00 80 3f
       1.0 1.0 1.0 1.0
000340 00 00 80 3f 00 00 80 3f 00 00 80 3f 00 00 80 3f
       1.0 1.0 1.0 1.0
000350 00 00 80 3f 00 00 80 3f 00 00 80 3f 00 00 80 3f
       1.0 1.0 1.0 1.0
000360 00 00 80 3f 00 00 80 3f 00 00 80 3f 00 00 80 3f
       1.0 1.0 1.0 1.0
000370 00 00 80 3f 00 00 80 3f 00 00 80 3f 00 00 80 3f
       1.0 1.0 1.0 1.0
000380 00 00 80 3f 00 00 80 3f 00 00 80 3f 00 00 80 3f
       1.0 1.0 1.0 1.0
000390 00 00 80 3f 00 00 80 3f 00 00 80 3f 00 00 80 3f
       1.0 1.0 1.0 1.0
0003a0 00 00 80 3f 00 00 80 3f 00 00 80 3f 00 00 80 3f
       1.0 1.0 1.0 1.0
0003b0 00 00 80 3f 00 00 80 3f 00 00 80 3f 00 00 80 3f
       1.0 1.0 1.0 1.0
0003c0 00 00 80 3f 00 00 80 3f 00 00 80 3f 00 00 80 3f
       1.0 1.0 1.0 1.0
0003d0 00 00 80 3f 00 00 80 3f 00 00 80 3f 00 00 80 3f
       1.0 1.0 1.0 1.0
0003e0 00 00 80 3f 00 00 80 3f 00 00 80 3f 00 00 80 3f
       1.0 1.0 1.0 1.0
0003f0 00 00 80 3f 00 00 80 3f 00 00 80 3f 00 00 80 3f
       1.0 1.0 1.0 1.0

layers.0.layers.1.weight f4 [100, 100]
000000 dd c8 90 bd 3e 20 19 be 12 fe 24 bd 55 9d 5d 3d
       -0.07069562 -0.14953706 -0.040281363 0.05410512
000010 a6 ed 3e 3d af 70 b6 bd 1b dc 2b 3e 92 17 23 3e
       0.046613358 -0.089082114 0.16783182 0.1592696
000020 2b 06 67 3e 6c aa 32 3e 40 51 28 3d 0f 44 e9 bb
       0.22560947 0.17447823 0.04109311 -0.007118709
000030 d1 d3 0f 3e dd 18 70 3c 73 41 58 3e 10 bc 84 3c
       0.14045645 0.014654365 0.21118717 0.016202956
000040 86 e8 3b be a0 e2 33 be 09 58 28 3e 17 70 0e 3e
       -0.1835042 -0.1756692 0.16439833 0.13909946
000050 85 ce 1f 3d f0 b8 35 3e 0b 0f 83 3e b1 05 a9 bd
       0.03901531 0.1774633 0.25597414 -0.08253039
000060 7f fd 70 3d a5 1d 28 3d 81 7d e4 3c ea 82 31 be
       0.058835503 0.041043896 0.027891876 -0.17335096
000070 ae 4c 2e be 40 d2 e9 3d fa ca 8b bd 22 d7 d0 bc
       -0.17021438 0.11417055 -0.06825824 -0.025493208
000080 fa fa dc bd c7 89 08 be 07 fb da 3d 31 aa 23 be
       -0.107900575 -0.13333808 0.10692411 -0.15982892
000090 94 0a af 3d 2e 04 ec 3c bf c5 bd 3d 44 ae 13 be
       0.085469395 0.028810587 0.09266233 -0.14421946
0000a0 ce 14 4f 3d b1 3e 9d 3d 9f 95 19 3e 8a 40 b1 3d
       0.05055695 0.07677973 0.14998482 0.08654888
0000b0 b0 c4 a6 bc 9d 69 7d 3e fb 8f 4a be 4e 05 aa bd
       -0.02035746 0.2474732 -0.19781487 -0.08301793
0000c0 30 d4 2a 3d af 07 28 3e 7f ea 4b be 4a d5 f6 bd
       0.041706264 0.16409181 -0.19913672 -0.120524004
0000d0 1e 70 fe 3d d3 ac 48 be d2 62 12 3d 88 03 6b 3e
       0.124237284 -0.19597177 0.035738774 0.22950566
0000e0 ef 50 00 bd 90 4f 84 bc 28 4f 91 3d 22 c7 f4 3d
       -0.031327184 -0.01615122 0.07095176 0.11952044
0000f0 f6 11 33 3c d8 ce 3d be 46 17 70 bc ce 02 50 3d
       0.010929575 -0.18535936 -0.014653986 0.050783925
000100 51 67 24 3e 35 c4 d2 3d 4a 7b 2e 3e 75 27 f9 bd
       0.16055037 0.1029133 0.17039219 -0.12165729
000110 6b a0 1d bc 24 4a 83 3d 46 bb 44 3e 28 ca 13 3e
       -0.009620766 0.064106256 0.19212064 0.14432585
000120 0b 27 60 3e f2 3e ca 3d f9 91 6d 3d a8 a8 0b 3d
       0.21889894 0.09875287 0.05800054 0.03409639
000130 cf b5 2a 3e 06 7d 4e 3e 98 d9 3e 3e 87 c7 07 be
       0.16670917 0.2016488 0.18637693 -0.13259707
000140 dc 0a c3 bc 14 d8 d3 bd 0c a1 46 bd 23 cb 2c 3e
       -0.02380889 -0.10343948 -0.04849343 0.16874366
000150 4d 49 1d be 05 c9 bd bd 48 83 cd bd 9e bf 6b 3d
       -0.15359993 -0.09266857 -0.100348055 0.057555787
000160 94 85 19 be da 96 ea 3d 90 27 42 be 73 3e 00 be
       -0.14992362 0.11454554 -0.18960404 -0.12523822
000170 b4 56 c7 3d 25 dd 19 3e 6b 93 e1 3b c7 40 d6 3c
       0.09733334 0.15025766 0.0068840287 0.026153935
000180 54 c4 18 bd 05 49 56 be 39 b5 ea bc a9 bf 0a 3e
       -0.037296608 -0.20926292 -0.028650867 0.13549675
000190 09 85 92 3d 77 a2 48 3e 18 54 15 be 9e 52 4b be
       0.07154281 0.19593225 -0.1458286 -0.19855735
0001a0 90 0d 88 be 09 30 f2 bd 86 33 4a 3d 0b 7d 23 3e
       -0.26572847 -0.11825568 0.049365543 0.15965669
0001b0 f4 d7 0b be 16 c0 15 be 53 fc 7e bd 56 48 f7 3d
       -0.13656598 -0.14624056 -0.062252354 0.12074344
0001c0 3b a9 d1 3d 01 e6 18 3c 2b 2d 46 3e da 5c 7d 3d
       0.10237356 0.009332181 0.19353168 0.06185613
0001d0 4a b5 3c 3e 0a 41 d9 3c a6 73 e6 bd ef 9c 81 3c
       0.18428531 0.02652027 -0.11252527 0.015821902
0001e0 7f d5 b8 3c 3e 43 a7 3d ef fb 26 bd ac 98 bf 3c
       0.02256274 0.08167122 -0.040767606 0.02338823
0001f0 0a fb b3 3c 93 8f 28 bd 73 db 84 3d 7e c4 4f be
       0.02197029 -0.041152548 0.06487169 -0.202898
000200 11 7b c1 bc 49 04 fb 3d 14 5e a2 3d 86 aa 29 3e
       -0.023618253 0.12256677 0.079281 0.16568956
000210 5d 2f ca bd 25 f0 af bc d7 55 16 be bf a3 34 be
       -0.09872315 -0.021476815 -0.14681183 -0.17640589
000220 f7 fc d3 bd b4 81 74 bd 2e e2 22 bc f3 df 4c 3a
       -0.103509836 -0.059694007 -0.009941621 0.00078153535
000230 dc 6d 0e be 6e c9 b3 3c b8 a4 2f 3d ad f7 68 3e
       -0.13909096 0.021946635 0.042881697 0.22750731
000240 bd ae 18 3e d0 42 39 be 67 36 ff bd 33 af 78 3e
       0.14910407 -0.18091893 -0.12461548 0.24285583
000250 dc d4 08 3e 9e 71 f6 3d bb 81 e2 bd c9 b7 4c 3e
       0.1336245 0.120333895 -0.110599004 0.19991983
000260 1a fa 7d be e0 1c 2f be f8 96 8c bc ae 1a 98 3d
       -0.24802437 -0.17100859 -0.017161831 0.07426964
000270 09 45 2e be 92 b9 81 bc 87 e6 40 3d cf be 03 bd
       -0.17018522 -0.015835557 0.047094848 -0.03216439
000280 4a e1 3c be 13 53 9f bd 3d e2 c6 bc fc ba 4b 3b
       -0.18445316 -0.07779517 -0.0242778 0.0031086793
000290 f9 d4 eb 3d 5b ee 99 bd 95 e4 59 3e f3 61 1d 3c
       0.11515231 -0.07516166 0.21278603 0.009605872
0002a0 c4 00 23 be 55 0e 83 be 87 18 47 3e fc e7 6a 3d
       -0.15918261 -0.25596872 0.1944295 0.057350144
0002b0 43 36 0d 3d ed 55 c9 bd 0a 9b a8 3d e1 24 0d be
       0.034475576 -0.09830842 0.08232696 -0.137836
0002c0 c6 c6 3f be 09 15 3b 3e 83 2a 8f bd b2 2f 2e 3e
       -0.1872817 0.18269743 -0.0699053 0.17010382
0002d0 51 c8 13 be d5 b2 25 bd ac f1 fb bd 7b 41 f9 bc
       -0.14431883 -0.04045375 -0.123019546 -0.030426731
0002e0 d5 ad 93 3c 22 9f a0 3d ca 81 48 be 1e e5 2b be
       0.018027226 0.07842852 -0.1958076 -0.1678662
0002f0 4f 1b 1e 3e a5 7c 0e be d3 ac 95 3c d2 27 52 be
       0.15440105 -0.13914736 0.018270886 -0.20523003
000300 7f 4a 39 3d fb f8 83 3c 7a c0 a5 bd 94 87 82 39
       0.04523706 0.016109934 -0.080933526 0.00024896546
000310 84 59 b7 3d 7d 36 36 3d 5f 2c 3d 3e 48 12 29 be
       0.089526206 0.044485558 0.18473957 -0.1651088
000320 af 7f 17 3c 2f 92 65 3e 23 71 68 be 2c e4 4c be
       0.009246751 0.22419046 -0.22699408 -0.20008916
000330 87 ad 7a 3d d1 1e e7 bd d9 c8 b3 3c 8a f5 80 be
       0.061200645 -0.11285175 0.021946358 -0.2518733
000340 cf e3 3f 3e aa 8a 21 bd a7 c4 29 3c af c2 94 bd
       0.18739246 -0.03943888 0.010361827 -0.072636954
000350 b3 eb 80 3d 5d 62 5d bc 00 d0 1f be 4f e5 f6 3d
       0.06294956 -0.013512221 -0.1560669 0.12055456
000360 5d ef 8d bd d9 6c dd 3c 6f bd 71 be 81 82 bb bd
       -0.069304205 0.027029442 -0.2360742 -0.09155751
000370 b7 7a 5f be 66 49 05 3e a3 e6 d7 bd b3 02 71 3e
       -0.21824156 0.1301628 -0.10542037 0.23536186
000380 83 fb 21 3c ca e1 f2 3d ce 3a 68 be 0c 46 38 be
       0.009886625 0.11859472 -0.22678682 -0.17995471
000390 30 ac 21 bd 5b 90 19 be 47 5e 75 bd db 8c 63 3e
       -0.03947085 -0.14996473 -0.059904363 0.22221701
0003a0 b2 47 fe 3d eb 83 50 bd 70 92 17 3e 0e 75 41 be
       0.124160185 -0.050907057 0.14801955 -0.18892309
0003b0 fd e6 b2 bd e4 09 19 3e c7 db fe 3d 18 69 b3 bd
       -0.08735464 0.14945179 0.12444263 -0.087602794
0003c0 74 6e 4f be ac f1 13 3d 0a eb 46 3e c7 b8 40 3e
       -0.20256978 0.036119148 0.19425598 0.18820487
0003d0 1f bf 0c 3e 14 19 54 be bc 79 35 3e 1d f3 ce 3d
       0.13744782 -0.20712692 0.17722219 0.10104964
0003e0 4c e6 5c be 4c 60 4d bc 01 e1 91 be 52 cb 87 3d
       -0.21572226 -0.012535166 -0.28491977 0.06630577
0003f0 46 8d f5 bd 6b 9d 20 be 41 5f 81 bc 0b 17 0f 3e
       -0.119898364 -0.1568505 -0.01579249 0.13973634

layers.0.layers.1.bias f4 [100]
000000 2d 0c 40 3e 4b 8d 02 3e 37 67 c0 bd fd 66 24 3b
       0.18754645 0.12749211 -0.09394687 0.00250858
000010 5d 2f e9 3d 79 0f 9f 3d eb 0e 5f bd bd 54 3c bd
       0.11385987 0.07766623 -0.054457586 -0.04597925
000020 a0 4c 9a bd 26 a1 28 bd 15 93 34 3e 90 3a db bd
       -0.07534146 -0.041169308 0.17634232 -0.10704529
000030 9e 75 27 3e ca 59 5d 3e 09 93 55 bd ed 2d ca bc
       0.16353461 0.21616283 -0.052142177 -0.024680102
000040 94 da 2d 3e 62 ef 7b bd e4 e0 fc 3d b9 e9 96 bd
       0.16977912 -0.06150759 0.12347582 -0.07368798
000050 20 4a 15 bd 01 23 76 3e 57 71 33 3e 24 bd 0d 3e
       -0.036447644 0.2403679 0.17523704 0.13841683
000060 ca 86 93 3c 8c 41 4e 3e f7 e4 79 3c 85 af 41 3e
       0.018008608 0.20142192 0.015252343 0.18914612
000070 1f fa 9d 3b 9d cf df bd f6 af 95 bc a2 ed ea 3d
       0.0048210765 -0.10928271 -0.018272381 0.11471106
000080 a3 c0 c6 bd ab ea bd bd ea 0d e0 bc d6 9f b5 3c
       -0.09704711 -0.09273275 -0.027350385 0.022170942
000090 9e fb 86 3c c8 5f 93 3c e3 d1 2e 3e 29 79 15 bc
       0.016477402 0.017990008 0.17072253 -0.009123125
0000a0 9d 7b 02 bd 12 82 60 3d f2 8f 63 3e 5f 64 b9 3d
       -0.031856168 0.054811545 0.2222288 0.090523474
0000b0 82 e8 ac bc e3 19 b2 bd 64 67 af bd 07 5a 04 be
       -0.021106962 -0.08696344 -0.08564642 -0.12924968
0000c0 ff 11 52 3e 2f 88 4c 3d 1e 5e 7e bd 80 e8 f0 bd
       0.20514677 0.049934562 -0.062101476 -0.11763096
0000d0 ff 2f 26 3e ab 4f 81 bd 62 15 56 3d 74 06 83 3d
       0.16229247 -0.063140236 0.052266486 0.06397715
0000e0 c7 b3 8a bd 22 01 74 bd dc f8 3a bd ab 3f af 3d
       -0.06772571 -0.059571393 -0.045647487 0.085570656
0000f0 24 fc d1 3a 66 fa dc 3d e0 cd 89 bd f5 a3 f3 bd
       0.0016020578 0.10789947 -0.06728721 -0.11896507
000100 04 b7 eb ba 86 4e 1d 3e 00 73 c6 3c 77 d0 69 3e
       -0.001798362 0.15361986 0.024224758 0.2283343
000110 35 49 bc 3d 1b 67 84 bc 20 7f c3 bd ae 76 f4 bd
       0.09193651 -0.016162446 -0.095457315 -0.11936699
000120 0e 88 4e bd 35 b9 5f 3d 9f ab d5 3d 07 b5 c9 bd
       -0.05042272 0.054619987 0.10433125 -0.09848981
000130 cf 44 23 3e 15 5d 0c bd 0f 02 9d bb 51 c1 35 3d
       0.15944217 -0.034268457 -0.004791505 0.044373814
000140 cf af 19 3d e6 74 91 3d 48 88 c4 3d 73 4d 74 3d
       0.03752118 0.07102375 0.09596306 0.059644174
000150 56 50 16 3e ac 5a d9 bc f0 3b f9 3c 3d 4e bd bd
       0.14679083 -0.026532494 0.030424088 -0.092434384
000160 34 09 c3 bd ce f3 42 bb 91 ed 84 3d cf 20 bb bd
       -0.0952324 -0.002974737 0.06490625 -0.09137117
000170 90 c4 b2 3d 7d 94 1e bd 99 c1 8a 3c aa 44 d8 bc
       0.087288976 -0.03871583 0.016938018 -0.02639993
000180 9d d3 2e bc e9 bf 18 3d 6e 6d 6f bd ec c4 b8 3d
       -0.01067057 0.037292395 -0.05845397 0.09021935

linear.weight f4 [16, 100]
000000 66 3f 0b 3d bc f7 29 3e 4e c7 00 be 6b 8a d6 3d
       0.03399601 0.1659841 -0.12576029 0.1047562
000010 f4 45 27 bd f1 96 b1 bd 6c c4 60 3d fa f9 c5 bb
       -0.040838197 -0.08671368 0.054874822 -0.0060417624
000020 27 03 57 bd c8 3c e4 bd 0b 5e 1a be b1 19 00 be
       -0.05249324 -0.111444056 -0.15074937 -0.125098
000030 14 ce 7c be 32 fe 18 be 50 b5 10 bb a0 0c 30 be
       -0.24687988 -0.14940718 -0.0022080727 -0.17192316
000040 9a ea 21 3c 80 72 15 3e 53 3e 72 3d 1e 88 d6 bd
       0.0098825935 0.1459446 0.05914147 -0.10475181
000050 12 9b f2 3c fd 5e 32 be 24 ac 7a 3e 6b 56 6b 3e
       0.029614959 -0.17419048 0.24479729 0.22982185
000060 1d 5e 84 3e 94 29 ab bd 0a 6d 7b 3e 27 34 2e 3d
       0.25853053 -0.0835754 0.24553314 0.042530205
000070 a3 60 d7 bd 91 47 4d 3e b5 c9 38 be 7b 12 92 be
       -0.10516479 0.20046832 -0.18045695 -0.28529724
000080 99 be a0 3e 87 55 04 3e 28 58 36 3e 18 ec bd be
       0.31395414 0.12923251 0.17807066 -0.37094188
000090 a9 02 a0 3d 68 8a 12 3e df 4c af bd 9f a9 4c be
       0.078130074 0.1431061 -0.08559584 -0.1998658
0000a0 ad 77 4d 3e 54 dc 88 3d 92 65 17 3e 09 df 99 3e
       0.20065184 0.06682649 0.1478484 0.30052975
0000b0 45 71 73 be f5 ee 59 3e a3 b6 cc bd 8a d8 b3 3d
       -0.23773678 0.21282561 -0.09995773 0.08781536
0000c0 0e 4c 26 3e 79 3c 43 3e 48 82 b2 3d 03 53 41 bc
       0.1623995 0.19066037 0.087162554 -0.011799577
0000d0 e5 38 ec bb b2 ec 1b be 6f a8 1c 3e e3 c1 92 3e
       -0.007208931 -0.15227011 0.15298627 0.2866355
0000e0 16 0f a8 3c ad c4 76 be 12 d9 c1 bd 1a 49 7f bd
       0.020515006 -0.24098463 -0.09465231 -0.062325574
0000f0 2c 19 21 3e fc e5 85 be 8e df ac bd 4d d3 0f be
       0.15732259 -0.26152027 -0.08441077 -0.14045449
000100 29 c3 8c be 28 0a fd bd 8f 03 33 3e 25 85 a8 3d
       -0.27492645 -0.12355453 0.17481826 0.0822852
000110 d0 23 6e 3e 26 04 83 bc d7 cd 1d 3e 36 ed 24 3e
       0.23255849 -0.015993189 0.15410553 0.16106114
000120 fb ec 43 3e 1f 26 56 bd f1 01 2f 3e 21 08 41 bd
       0.1913337 -0.05228245 0.17090584 -0.047126893
000130 99 66 2d be 99 c2 8d 3d 0e 0d e6 3d b7 da 3c be
       -0.16933669 0.06921882 0.11232959 -0.18442808
000140 66 25 45 be 30 7e 9b be 45 c2 90 3e 40 dd 81 3d
       -0.19252548 -0.3036971 0.28273216 0.06341028
000150 0c bd 72 3e 88 78 91 be c9 35 8c 3e 8f 32 98 3e
       0.23704928 -0.2841227 0.27384785 0.29726073
000160 89 85 88 3e 46 71 54 be e9 aa 98 3e 94 46 87 be
       0.2666438 -0.20746335 0.29817894 -0.26421034
000170 f9 a1 70 be 79 c6 d5 bd d8 e6 7c 3e 46 b6 a1 bd
       -0.23499288 -0.10438246 0.24697435 -0.07896094
000180 56 aa 02 3e 2b 4b a2 bc 1c d5 1a 3e 29 3d 29 3e
       0.1276029 -0.019811234 0.15120357 0.16527237
000190 3c c6 71 3e e3 30 2d 3e 0e d6 8b 3e 9c 93 93 3e
       0.23610777 0.1691318 0.27311748 0.28823555
0001a0 04 0e 73 3d 10 4a 78 3e 34 10 89 3e a4 16 2a 3e
       0.05933954 0.24247003 0.26770175 0.16610199
0001b0 10 2c 11 be b5 e4 70 3e 3f 8b 6c bb 96 a9 7b 3e
       -0.14176965 0.23524745 -0.003609374 0.2457641
0001c0 e3 c7 c5 bd 57 fa 9d be 4b 81 68 be 32 1e 0e bd
       -0.09657266 -0.30855057 -0.22705571 -0.034696765
0001d0 7f 4d 95 be fc 1c 1e be 85 a8 19 3e e5 a8 66 3d
       -0.29160687 -0.15440744 0.15005691 0.056313414
0001e0 e9 e4 25 be 93 7a bd bd 50 d1 9a be 1f 2a 9d bc
       -0.16200604 -0.09251895 -0.30237818 -0.019185124
0001f0 ed c9 f7 bc 3d a2 85 be f4 47 7f 3e b6 bb 46 be
       -0.030247653 -0.2610034 0.24929792 -0.19407544
000200 84 1a 3a 3d 1b 91 80 be 23 db fe 3c 30 a5 98 be
       0.045435444 -0.25110707 0.031110352 -0.29813528
000210 25 72 5d 3b 2a 5b ad 3d fa 20 86 3e e5 c2 94 bd
       0.003378996 0.08464654 0.26197034 -0.07263736
000220 55 7f 54 3d 96 ae 6c 3d 87 ee 2b be fb 3c 3a 3d
       0.051879246 0.057783686 -0.1679021 0.04546831
000230 3d cd 96 be 11 b9 f0 bd 27 f9 f0 bc b4 1e ee bd
       -0.2945346 -0.117540486 -0.02941568 -0.1162695
000240 6d 0e 8f 3d b7 dd 8a be af f4 d7 3d ad b8 3f be
       0.069851734 -0.2712228 0.105447166 -0.18722792
000250 81 65 9d be 92 7a ea bd c4 de 0e 3b 05 7b 4f be
       -0.30741504 -0.1144916 0.002180026 -0.20261772
000260 e0 f2 84 3e ed 3b db bd d5 8f 67 bd 61 d8 99 3c
       0.2596655 -0.10704789 -0.056533653 0.018779935
000270 33 b0 c6 bd a5 2a 75 3b b6 89 8b 3e 1d 9f 35 bd
       -0.09701576 0.0037409451 0.27253503 -0.044341195
000280 0a 01 2a be cc ce 47 3e d1 db 8c 3d c3 be 26 3e
       -0.16601959 0.1951248 0.06877864 0.16283707
000290 38 0a 7d 3d 3d 83 62 be f5 4b a0 be 37 ed 2a be
       0.061777323 -0.22120376 -0.3130795 -0.16692053
0002a0 4e fb 84 be 0b 7a 98 be 0e 03 57 3e 10 b3 ad bd
       -0.2597298 -0.2978061 0.20997259 -0.08481419
0002b0 28 48 9e bc 5e bc 95 be 41 70 ca 3d df d2 4f 3e
       -0.019321516 -0.29245275 0.09884692 0.20295285
0002c0 3b f2 1a 3e 46 ce 37 be 21 c8 90 3c 03 98 16 be
       0.15131466 -0.17949781 0.017673554 -0.14706425
0002d0 3c 13 ff 3d 53 53 13 3e 84 9a 72 be 5e 05 8f be
       0.124548405 0.14387254 -0.23691756 -0.27933782
0002e0 be f0 8e be 83 c6 0c 3e 02 67 1f 3c 81 12 31 3e
       -0.27918047 0.13747601 0.009729149 0.17292215
0002f0 73 5b ae bc 95 6f 8b 3e 9c d4 9a 3e cb 1d 6f be
       -0.02128384 0.27233568 0.30240333 -0.23351209
000300 29 0c 1e bd 78 90 34 bc 47 de 3f 3e 89 a6 9d be
       -0.038585816 -0.011020772 0.18737136 -0.3079112
000310 8c 2b fa 3d 38 3d 76 3d 26 0f 6c 3e cb 6d 99 be
       0.12215337 0.060116976 0.23052654 -0.29966578
000320 e4 a0 5b 3e 59 23 50 3e 34 e0 9c bc b8 16 f9 bd
       0.21448094 0.20325984 -0.019149877 -0.121625364
000330 4f 0e fc 3d a2 6c 20 be 76 32 e1 bd 1f 81 7a be
       0.12307417 -0.1566644 -0.10995953 -0.24463318
000340 79 6f 8d 3e 33 2e 3f 3e cd 17 a8 bc b4 9a 6a 3b
       0.2762411 0.18669967 -0.020519162 0.0035797777
000350 93 0d 89 be d0 73 58 3e 19 36 e0 3d 3c a5 4e 3d
       -0.2676817 0.21137929 0.10947818 0.05045055
000360 1d 6e 87 3d 4a c2 9e be 45 47 1a be ea 54 39 3e
       0.06612799 -0.31007606 -0.1506625 0.18098798
000370 e7 d4 0f be bf a9 65 3e f6 5b 92 be 79 80 4f 3e
       -0.1404606 0.22428034 -0.28585786 0.20263852
000380 ff 97 93 3e 06 be a7 be d1 f2 5d 3e 5b 16 45 3d
       0.288269 -0.32762164 0.21674658 0.048117023
000390 95 5e ff 3d fb 3f f9 bd 65 5b 45 3e 00 04 c7 3c
       0.12469212 -0.121704064 0.19273145 0.0242939
0003a0 79 21 85 be 3d 4e 7d 3e 89 02 02 bd 85 ed f9 bd
       -0.260021 0.24736877 -0.0317407 -0.122035064
0003b0 2d 51 cc 3c 98 0a 3b 3c c6 3f ae be 3d 91 8d 3e
       0.024941051 0.0114161 -0.3403303 0.2764987
0003c0 64 28 8c bd be f4 67 3d 66 58 05 be c6 07 b0 be
       -0.068436414 0.05662989 -0.13022003 -0.3438093
0003d0 ea bf a3 be 36 cc 07 be 77 aa 03 be 3a a9 6d 3e
       -0.31982356 -0.13261494 -0.12857996 0.23209086
0003e0 40 24 d2 39 99 b8 86 3e 9d 74 75 3e a8 3f 1c bb
       0.0004008133 0.26312712 0.23970266 -0.0023841653
0003f0 30 ff 2d be bd 2f 0c bd 25 a8 0e be 6e 53 bd be
       -0.16991878 -0.034225214 -0.1393133 -0.36977714

linear.bias f4 [16]
000000 63 c4 52 bc 98 d0 39 bd a0 27 a9 bd eb 40 2e be
       -0.012864205 -0.045364946 -0.08259511 -0.17016952
000010 60 03 7f 3b e4 29 2b bc 41 b3 87 bd 74 0a 8c bd
       0.0038911924 -0.010446999 -0.06625987 -0.06837931
000020 38 79 dc 3d fd 35 91 bd 8b 54 dc 3d e4 94 e1 3b
       0.10765308 -0.070903756 0.10758313 0.006884204
000030 b4 0f d1 bd d5 46 23 bd 39 4d d7 bd 9a 43 24 bd
       -0.10208073 -0.039862473 -0.10512776 -0.040103532

exp_avg f4 [100, 100]
000000 57 14 6c be 8a 78 77 3e 22 3e 32 be 88 2a 45 3e
       -0.23054634 0.24167076 -0.17406514 0.19254506
000010 cf bf ce bd c8 b8 6f 3d 65 b8 6e 3e cd ed 53 3f
       -0.10095178 0.05852583 0.23312528 0.8278473
000020 0f 2d 07 3c 22 ee 18 bd d7 ef d0 be 0c 53 b4 3d
       0.008250489 -0.037336476 -0.40807983 0.088049024
000030 20 16 b3 3c 07 69 bc 3e 8b 23 21 bc 29 6e 02 3f
       0.021861136 0.3679888 -0.009835134 0.5094934
000040 50 f8 64 be c1 b4 e7 be 7e b8 51 be bc fa 1e 3d
       -0.22360349 -0.45255092 -0.20480534 0.038813338
000050 0a 85 d3 bc f7 ba b1 3e bd ae 16 3f 6e 71 22 be
       -0.025820274 0.34712955 0.5886038 -0.15863582
000060 16 bc 5a ba 67 ba 89 3e ec a8 52 be 2e f4 50 be
       -0.0008344067 0.26900026 -0.20572251 -0.20405647
000070 b8 7d 3d bf 4d d7 23 bf 38 14 84 be fd e4 68 bf
       -0.74019957 -0.640004 -0.25796676 -0.9097441
000080 4e 79 0e bf 52 b3 d6 3e 0b e0 a5 3d 9f e3 54 3d
       -0.55653846 0.41933686 0.080993734 0.05197489
000090 c0 ce 24 3d 34 a5 02 bd ec 20 4b 3e ea 41 e4 bd
       0.040236235 -0.03189583 0.19836777 -0.111453846
0000a0 34 22 72 3e 63 1c f4 bd b7 2a 08 3f a3 89 b4 3d
       0.2364586 -0.11919477 0.5319018 0.088153146
0000b0 b1 3b c3 bd 34 1d 4a be 6e 2f 83 be d4 17 91 3e
       -0.095328696 -0.19737703 -0.25622123 0.28338492
0000c0 24 87 27 3f f1 fa 21 be ef c9 e8 3d 87 22 9f bd
       0.65440583 -0.15818383 0.11366641 -0.077702574
0000d0 26 1b f5 3c e4 73 99 bb 5d fb 82 bd 0e b4 d6 3d
       0.029920172 -0.0046830047 -0.063956 0.104835615
0000e0 2d f5 d6 be 7a 97 14 3f 33 c1 44 3a 91 cf c4 be
       -0.4198393 0.58043635 0.00075055956 -0.3843961
0000f0 55 87 aa be 41 02 44 be 1e fa 6d be 60 a9 dc 3e
       -0.33306375 -0.19141485 -0.23239943 0.43097973
000100 01 ee f9 3e cd b2 f0 be 91 d9 e2 3d 6e fc 9f bd
       0.48814395 -0.47011414 0.11076654 -0.07811819
000110 30 ca 4c be cc c5 7f 3e e8 14 11 be b1 dd 78 3e
       -0.19999003 0.24977797 -0.14168131 0.24303319
000120 20 59 75 3d 38 6c 3f be 57 a9 35 3f 56 27 9c 3e
       0.05989945 -0.18693626 0.7096152 0.3049876
000130 98 5b a4 3d 1d b6 78 bc 0b 5a b3 be 90 02 a3 be
       0.080252826 -0.015180138 -0.35029635 -0.31837893
000140 6e 1b 58 3e a8 b7 56 3e bf e3 7a 3e ff 6b 56 bd
       0.21104214 0.20968497 0.2450094 -0.052349087
000150 f0 25 0e 3e bf 9d ed bd 26 0c 01 bf e7 23 d0 3e
       0.1388166 -0.11602353 -0.5040916 0.4065239
000160 07 49 2c 3d ef ba 5e bd 6d 0f 8f 3e a6 30 f7 3d
       0.04206183 -0.054377493 0.27941456 0.12069826
000170 42 f3 a4 3e dc 54 bb be 9a 77 b6 be 13 fe 5b 3d
       0.3221684 -0.3658818 -0.35638124 0.0537091
000180 2a dd 2f bd 06 e6 0f 3f 7b 2a 1c 3e 90 5b 28 3f
       -0.042935528 0.5621036 0.1525058 0.65764713
000190 34 9f d1 be 34 94 cd 3e f3 64 b0 be d7 79 fd 3d
       -0.40941775 0.40152133 -0.34452018 0.12376755
0001a0 fd 69 e6 3e a4 ab d6 be 11 d7 ea 3e 12 4e 82 3f
       0.45002738 -0.41927826 0.45867208 1.0180075
0001b0 ec fd 9b be 9f 70 39 be d9 96 bd be 61 42 04 be
       -0.30467165 -0.18109368 -0.3702915 -0.12915947
0001c0 41 53 a7 3e 2b 8c b9 bd f8 1b af bd 44 2a 06 3f
       0.32680705 -0.09059938 -0.085502565 0.5240824
0001d0 64 3c c7 bd e7 69 5e bf 94 14 7b 3d 16 f4 f0 bd
       -0.097283155 -0.86880344 0.06129892 -0.11765306
0001e0 63 8f bd 3d 33 b3 4f bc f8 d7 f8 3e ff 1d 92 be
       0.092558645 -0.012677002 0.4860227 -0.2853851
0001f0 15 ab a7 bd d5 a4 98 3b 4c f5 ba 3e 06 92 e3 3d
       -0.08186928 0.0046583214 0.36515272 0.11111836
000200 38 a3 9b be 89 23 50 be bf b4 b4 be 91 b2 6f bd
       -0.30397964 -0.20326056 -0.35294148 -0.058519904
000210 f8 6b 31 bf 88 0d f0 bd 70 d4 b1 bc dd 3c 81 be
       -0.6930537 -0.11721331 -0.021707743 -0.25241747
000220 62 fa 18 bc b2 02 27 3f 89 8d 94 bd 6d 7c 87 be
       -0.00933704 0.6523849 -0.07253558 -0.26462117
000230 d0 19 8b 3c 4f 45 a2 be d5 7e 97 3e 6a e4 00 bf
       0.016980082 -0.31693503 0.29588953 -0.5034853
000240 f4 80 ae 3e 9f 81 27 3e f8 a5 a1 be 67 06 ed bc
       0.34082758 0.1635804 -0.31571937 -0.028933717
000250 30 91 e7 3e 3c 2e db bb 0c 68 06 3e 69 a4 0b be
       0.45227957 -0.006688861 0.13125628 -0.13636936
000260 10 7c 19 bf 42 5b a7 3e 18 c7 ed be 8f 56 42 bc
       -0.5995493 0.32686812 -0.4644096 -0.0118614575
000270 25 1a 29 be 24 75 3d 3f 01 f5 65 be 82 f2 19 bf
       -0.1651388 0.7400687 -0.22456743 -0.6013566
000280 e4 59 34 3d 95 d6 83 be 13 75 23 3d 04 c0 1b 3f
       0.04403104 -0.2574965 0.039906573 0.6083987
000290 ad e8 43 3f 6c 8c 0a bc 66 1e c9 3e 02 74 a9 3e
       0.7652691 -0.008456331 0.39281005 0.3309632
0002a0 8e 9b be bc a9 fa 14 be 94 13 a9 be 47 81 ad 3e
       -0.023267534 -0.14548744 -0.3302275 0.33887693
0002b0 7d a6 02 bf 30 a1 df 3e f5 17 e9 3e c4 2d 93 3e
       -0.5103529 0.43677664 0.4552609 0.28745854
0002c0 25 3f 9d 3e 91 7d 34 3e a1 b6 84 be 30 c2 68 be
       0.30712238 0.17626025 -0.25920585 -0.22730327
0002d0 5c 5e 0b be e1 4e 73 3e 5e f3 ca 3c e1 8c 45 be
       -0.13610214 0.23760559 0.02477425 -0.19292022
0002e0 e6 8c 35 be 70 5e 4d be bf f4 43 be 75 40 15 3e
       -0.1772953 -0.20055556 -0.19136332 0.1457537
0002f0 6b 11 20 3f 5f 88 90 3c 33 09 1b 3f d8 94 d8 3e
       0.6252658 0.017643152 0.6056091 0.4230106
000300 34 98 33 be 10 59 a2 be 36 35 eb 3c 7c ab a3 3e
       -0.1753853 -0.31708574 0.028711896 0.3196677
000310 df 9b 10 be 7f 24 c0 bd 6e ef 09 3d 6b a8 bf 3e
       -0.1412196 -0.09381961 0.033675604 0.3743318
000320 20 f0 bd 3e 80 30 8a be 5c d4 af bc b2 6f 06 3e
       0.37097263 -0.26990128 -0.021463566 0.13128546
000330 48 9d 24 be c7 7b e0 3e 1f 5d 69 3c 7b 17 89 be
       -0.16075623 0.43844435 0.014243393 -0.26775727
000340 c0 27 28 bd 47 e7 eb 3e f2 05 09 3d 7e ca c2 3e
       -0.041053534 0.46074888 0.033452936 0.38045114
000350 bb f1 5f 3d 34 5a df 3d 7d 46 e9 bc 09 07 9d bd
       0.05467389 0.10905877 -0.028475994 -0.076673575
000360 27 2e 5c b9 b0 fb f4 3e 5f 4f 2b 3d 77 00 61 3e
       -0.00020998028 0.47848272 0.04182374 0.21972834
000370 fd f5 9b 3d b7 18 b0 3c 2a 0d e0 be 16 51 32 bd
       0.07615278 0.02149616 -0.43760043 -0.04353436
000380 00 7b 4c be 66 e8 84 bd c5 e2 e5 3d 7b 0b 34 bd
       -0.19968796 -0.06489639 0.112248935 -0.04395626
000390 8f 16 0c 3e 15 29 c5 3e b5 a8 de 3d 5b 12 5c bc
       0.1368048 0.38507906 0.10872022 -0.013432111
0003a0 de 24 3f 3e 9d 6f 9a 3e 00 b6 0b be cd bf 91 3d
       0.18666407 0.3016328 -0.13643646 0.07116661
0003b0 5c de 62 be 8f ec fa bd 41 1c 55 be 4c 23 52 3e
       -0.22155136 -0.12252151 -0.2081156 0.20521277
0003c0 80 48 07 3e df 91 ee bb 2e 86 14 3e b4 05 a5 3e
       0.1321125 -0.007280573 0.1450431 0.32230914
0003d0 64 10 c0 3d b2 fa ac 3d 06 8c ff 3d cb bf 36 bd
       0.09378126 0.08446254 0.12477879 -0.0446165
0003e0 8b 1c 77 3e 80 7a 8b bd 3f 7f 30 bd 54 3c 67 bd
       0.24131982 -0.068104744 -0.0430901 -0.056454018
0003f0 08 14 19 3e aa 40 15 bd f2 fd 4e bd 6e 13 9e 3c
       0.14949048 -0.03643862 -0.05053515 0.019296374

exp_avg_sq f4 [100, 100]
000000 ec 29 57 3f 13 c7 ad 3f 3d 45 6e 3f 56 9b ea 3f
       0.8404834 1.3576378 0.930744 1.8328655
000010 ad e5 7f 3f 69 b3 6b 3f 4a 96 47 3f dd 3a 27 40
       0.9995983 0.92070633 0.779637 2.6129677
000020 79 79 5a 3f 7d 43 fb 3f 0d ea 1b 3f 73 9d a0 3f
       0.853416 1.9629971 0.6090401 1.254805
000030 ea 0f 40 3f af b4 1f 3f fd 3a 72 3f 23 13 8a 3f
       0.7502428 0.62385076 0.9462126 1.078709
000040 85 5c 31 3f 86 68 45 3f 76 e3 37 3f 25 6f a2 3f
       0.692818 0.77112615 0.7183145 1.2690169
000050 f1 fc 4a 3f 03 fa 4a 3f 54 e8 b4 3f 0c e5 f3 3e
       0.7929221 0.7928774 1.4133401 0.47635686
000060 80 cd 03 40 dd 14 96 3f 73 4a 88 3f fb f5 36 3f
       2.0594177 1.1725117 1.064772 0.71469086
000070 38 be d0 3f d2 e1 12 40 46 6b 7f 3f f5 22 87 3f
       1.630805 2.295033 0.9977306 1.0557543
000080 ac 3b c5 3f af ee 83 3f 01 40 55 3f 56 60 68 3f
       1.5408835 1.0307215 0.8330079 0.90771997
000090 dc 15 39 3f dd 72 62 3f d3 94 48 3f 84 3a 99 3f
       0.7229898 0.8845652 0.7835209 1.1970983
0000a0 86 8b 3a 3f d8 6c 5f 3f 8b 88 76 3f 51 9d 29 3f
       0.72869146 0.8727546 0.963021 0.6625567
0000b0 fa 3d 35 3f 10 58 a0 3f 7f e1 b3 3f ff 40 50 3f
       0.70797694 1.2526875 1.4053191 0.81349176
0000c0 96 6f 9f 3f d8 17 c7 3f 4d 7a 88 3f 9d fc 2f 3f
       1.2455928 1.5554152 1.0662323 0.6874483
0000d0 fa 03 95 3f 45 9a b5 3f 58 fa 34 3f d9 69 15 3f
       1.1641839 1.4187704 0.70694494 0.58364636
0000e0 c3 49 89 3f 03 c5 bc 3f ec b0 5d 3f 3e b2 29 3f
       1.0725635 1.4747623 0.86598086 0.662876
0000f0 61 b1 61 3f a0 70 5b 3f ce a8 d4 3f 0d a2 c5 3f
       0.88161284 0.8571873 1.6614015 1.5440079
000100 e5 79 7a 3f be 9b 63 3f 00 c8 7a 3f df 5c 8c 3f
       0.97842246 0.8890952 0.97961426 1.0965842
000110 da 53 91 3f 79 d0 43 3f 0f 80 cb 3e 50 f8 92 3f
       1.1353714 0.7648998 0.39746138 1.1482029
000120 ae f7 c1 3f c2 15 8c 3f a9 27 ba 3f ea 9b 7c 3f
       1.5153711 1.094414 1.4543353 0.98675406
000130 09 ae 70 3f 61 70 ac 3f 9f 6e 6b 3f 0b f6 3b 3f
       0.94015557 1.3471795 0.9196567 0.73422307
000140 70 db 83 3f 2b 44 51 3f ad 64 87 3f 07 ba 77 3f
       1.0301342 0.8174464 1.0577599 0.9676823
000150 8a d6 11 3f ef c8 82 3f 12 d3 cf 3f 0c 47 1c 3f
       0.56967986 1.021757 1.6236289 0.6104591
000160 70 cb 37 3f da 5a 6a 3f 0e 22 99 3f e1 c6 c6 3f
       0.71794796 0.9154488 1.1963518 1.5529443
000170 c2 e9 aa 3f 1f 02 64 3f 0e b4 55 3f be ab 57 3f
       1.3352587 0.89065737 0.83477867 0.8424643
000180 1e 14 53 3f 98 1f 98 3f f1 d9 50 3f b1 8e b3 3f
       0.8245257 1.1884642 0.8158255 1.4027921
000190 37 9d 4e 3f 4f db 06 40 7b 0f 2d 3f 4c 78 b2 3f
       0.8070864 2.1071355 0.67601746 1.3942962
0001a0 19 d0 57 3f 6d 20 43 3f d6 5f 5e 3f f7 38 e5 3f
       0.84301907 0.7622135 0.86864984 1.7908009
0001b0 27 81 87 3f ca eb 3c 40 0a 60 6f 3f 1c 84 96 3f
       1.0586289 2.9518914 0.9350592 1.1759067
0001c0 10 0d 31 3f 67 f4 09 3f 95 61 6c 3f a8 3d 4a 3f
       0.69160557 0.53888553 0.923364 0.7900033
0001d0 47 87 39 3f 69 a6 5f 3f 87 bf 7e 3f d1 72 95 3f
       0.7247204 0.87363297 0.99511 1.1675664
0001e0 01 33 58 3f e6 30 88 3f d1 ed b3 3f 7d 79 65 3f
       0.84452826 1.0639923 1.4056951 0.896385
0001f0 7a 09 dc 3f b7 ac 5b 3f 9c 1b 88 3f 92 90 55 3f
       1.7190392 0.85810417 1.0633426 0.8342372
000200 80 88 b8 3f 9c 43 00 40 cd a3 60 3f c1 f4 42 3f
       1.4416656 2.0041265 0.8774994 0.76154715
000210 24 1a f2 3f c5 1b 68 3f 40 23 1e 3f 10 2a 81 3f
       1.8914227 0.9066737 0.6177254 1.0090961
000220 8a e6 0f 3f 5d 5f 6b 3f 9c 9c 52 3f 29 11 95 3f
       0.5621115 0.9194239 0.82270217 1.1645862
000230 2d d8 60 3f 86 9b 2c 3f bc 08 42 3f 94 16 9b 3f
       0.8782986 0.6742481 0.7579458 1.2116265
000240 56 7b 33 3f 1a 20 77 3f fe ef 14 40 74 63 4d 3f
       0.7011007 0.9653336 2.327148 0.8022988
000250 19 7c 4e 3f 3b 02 ab 3f ce 5e 65 3f 65 09 03 3f
       0.8065811 1.3360056 0.89597785 0.5118621
000260 3c 06 82 3f 5f ba c0 3f cd af 3b 3f 49 ce 14 3f
       1.0158153 1.5056876 0.73315126 0.58127266
000270 6b fe de 3f 9f 18 aa 3f a7 b6 90 3f 70 7a 17 3f
       1.7421392 1.3288764 1.1305741 0.591712
000280 83 29 32 3f 4e 32 6b 3f 4b 96 96 3f a1 a7 80 3f
       0.6959459 0.91873634 1.1764616 1.0051156
000290 a9 0e 9a 3f 50 c9 61 3f 85 1d 64 3f 20 24 d3 3f
       1.2035724 0.88197803 0.89107543 1.64954
0002a0 bb 30 a8 3f 91 ee 30 3f 38 d0 ff 3e af 22 8a 3f
       1.3139871 0.69114023 0.49963546 1.0791835
0002b0 32 05 a2 3f e9 32 91 3f 95 aa dc 3f e2 a8 a8 3f
       1.2657835 1.1343662 1.7239558 1.3176539
0002c0 03 1c a2 3f 76 ea 89 3f b0 50 db 3f 73 83 15 3f
       1.2664798 1.0774677 1.7133999 0.584037
0002d0 e4 8a 51 3f 72 02 7f 3f ca 02 6e 3f 60 34 7b 3f
       0.81852555 0.99613106 0.92973006 0.9812679
0002e0 b8 28 eb 3e 01 be 4e 3f 88 f1 55 3f 47 e2 0e 3f
       0.45929503 0.8075867 0.8357167 0.5581402
0002f0 f1 ce 21 3f 08 db 83 3f 4f e1 b2 3f 93 71 ba 3f
       0.6320639 1.0301218 1.3975009 1.456591
000300 16 ef 30 3f 64 33 37 3f d6 c5 32 3f 44 44 23 3f
       0.69114816 0.7156279 0.69833124 0.6377604
000310 22 11 c4 3f ba 65 c6 3f bd d9 23 3f ac 23 84 3f
       1.5317729 1.5499794 0.6400412 1.0323386
000320 ff 8b e3 3e 43 13 5f 3f f4 5c ba 3e e5 57 d9 3e
       0.44442746 0.87138766 0.36399043 0.4244987
000330 5e 7e d1 3e 56 60 8a 3e 29 66 95 3e 79 1b 23 3f
       0.40916723 0.27026623 0.29179505 0.63713795
000340 aa 5e 79 3e fa 6d 8f 3f 8f 22 0d 3f 79 bc d9 3e
       0.24352518 1.1205437 0.5513086 0.42526606
000350 44 4f 0b 3f 0b 2b 95 3e 99 25 45 3e c5 05 bf 3e
       0.54417825 0.29134402 0.19252624 0.3730909
000360 e7 92 b3 3e a3 f7 f6 3e 02 62 a0 3e 2b 81 db 3e
       0.35073015 0.48235807 0.31324774 0.42871985
000370 a9 ec 83 3e 83 75 22 3f e8 c4 4d 3f 88 78 e5 3e
       0.25766495 0.6346056 0.8037858 0.4481852
000380 9e 65 4e 3f 4d b8 08 3f 17 8e b8 3e 8b b9 b6 3e
       0.80623806 0.5340622 0.36045906 0.35688433
000390 45 a8 0a 3f 36 ed 56 3f 29 aa c3 3e bc d3 89 3e
       0.5416301 0.83955705 0.3821576 0.26919353
0003a0 28 75 33 3f b4 a5 b8 3e 1e 31 7d 3e 6a d5 d7 3e
       0.7010064 0.3606392 0.24725768 0.4215501
0003b0 b4 f1 8e 3e cc f4 cc 3e 69 db 1e 3f dc 39 34 3f
       0.2791878 0.40030515 0.62053543 0.70400786
0003c0 31 f3 0a 3f 42 8f 80 3e dc 15 c9 3e dd 0f 00 3f
       0.5427733 0.25109297 0.3927449 0.50024205
0003d0 2b e8 a3 3e 9b 5a 1a 3f 6f 00 6b 3f 52 d6 fd 3e
       0.32013068 0.602945 0.91797537 0.49577576
0003e0 ab 26 05 3f 38 4f ee 3e bd 48 ed 3e 6e 53 87 3e
       0.5201213 0.46544814 0.46344557 0.2643084
0003f0 a4 ef 65 3e df d1 17 3f 80 0e 85 3e fd 79 8c 3e
       0.22454697 0.5930461 0.25987625 0.2743682

exp_avg f4 [100]
000000 a2 a4 87 bf 97 50 f1 be 1f e9 e7 be cb 92 10 bd
       -1.0597117 -0.47131798 -0.45295045 -0.035296243
000010 8f 3d a4 bf 95 d8 f1 be 3c 03 a5 be 90 d7 1e 3d
       -1.2831286 -0.4723555 -0.3222903 0.038779795
000020 2f 7a 44 bf 7b 3c a9 3c c5 34 2b c0 bd 35 ca 3d
       -0.7674894 0.020658722 -2.6750958 0.09873531
000030 12 91 3e bf fa 7a a3 bf 2c ff 2d bf 51 fe bd 3e
       -0.7444011 -1.2771904 -0.67967486 0.3710809
000040 7c ee 9d bf 97 a1 f2 3d 23 63 e8 bf e2 90 02 3b
       -1.2338405 0.11847227 -1.8155254 0.0019922783
000050 6d 7b b6 3e 88 64 08 c0 e5 63 1d c0 7f f4 f7 bf
       0.3564104 -2.131136 -2.459222 -1.9371489
000060 76 3c f9 bd b5 71 b9 bf 07 d3 b9 bf 49 28 f0 bf
       -0.12169735 -1.4487826 -1.4517525 -1.8762294
000070 a8 68 e7 bd 73 24 8c be e8 06 88 3f 38 36 d9 bf
       -0.112992585 -0.2737156 1.0627108 -1.6969671
000080 27 88 09 3e 83 f7 f7 3d 37 55 87 bf 36 67 e6 be
       0.13430844 0.12107756 -1.057288 -0.4500062
000090 64 a0 0e be e8 2b 57 3f 98 91 16 bf 33 94 a5 be
       -0.13928372 0.8405137 -0.5881591 -0.3233963
0000a0 31 e3 a3 3e eb 55 3b bf 8e b0 a9 bf 36 8f 91 3e
       0.3200927 -0.73177975 -1.3257005 0.28429574
0000b0 af e0 6d 3e cb 69 92 bd ba b2 1a 3e 7b 89 9b 3e
       0.23230241 -0.07149085 0.15107241 0.30378327
0000c0 86 b9 ee bf 1d 00 16 bf 03 b0 18 3e fc 4f 82 b8
       -1.8650367 -0.5859392 0.14910893 -6.213781e-05
0000d0 6e fb ee bf 95 62 8d bd 11 a0 cb 3d a3 bc 61 3d
       -1.867048 -0.06903569 0.099426396 0.05511154
0000e0 b4 50 9d bd 88 0e 33 be d0 a3 81 3e 4e 70 40 c0
       -0.076814085 -0.17486012 0.25320292 -3.0068545
0000f0 92 20 c4 3c ef 7d 91 bf 23 8f f3 3e 5b 69 f9 3e
       0.023941312 -1.1366557 0.47570142 0.48713192
000100 0f 2c 08 bf 82 e6 01 be 96 36 16 c0 1f 2b 11 c0
       -0.5319223 -0.12685588 -2.3470817 -2.268257
000110 ba be 88 be 56 ca a9 be b6 14 0a 3f 6b 02 06 bd
       -0.26708013 -0.33162183 0.5393785 -0.03271715
000120 17 98 0c 3f a7 6c f0 be e0 42 a7 bf 82 e9 ef bd
       0.5491957 -0.46957895 -1.3067284 -0.1171446
000130 52 3d f1 be 13 dd bc bf e7 40 2a 3f 0e 2d 6e bf
       -0.47117096 -1.4754966 0.66505283 -0.930375
000140 11 f9 18 be 9d b5 c6 bf 14 6b 98 bf c0 bb e7 bf
       -0.14938761 -1.5524174 -1.1907678 -1.8104172
000150 f6 15 a0 bf 7b 59 49 bf db 07 98 be 91 35 2f 3f
       -1.2506702 -0.7865216 -0.29693493 0.6844111
000160 d5 dc 14 3f 6b 28 35 bf 13 89 2d c0 6f 94 d8 3e
       0.5814946 -0.707648 -2.7114913 0.42300746
000170 7d 3a 0c bf 77 d5 78 bf a7 7a 31 bf d3 34 16 bf
       -0.54776746 -0.9720072 -0.6932778 -0.58674353
000180 ad ba 43 3e bd ff f4 be fe 3d 7e bf e5 c7 5f c0
       0.1911418 -0.47851363 -0.9931334 -3.4965756

exp_avg_sq f4 [100]
000000 6c 21 91 40 b9 77 5f 40 f1 cf 9e 3f 88 7d dc 3e
       4.53533 3.4916823 1.2407209 0.43064523
000010 41 fd dd 40 49 da 43 3f 1e 50 37 3f 7d 40 a4 3e
       6.937165 0.7650495 0.71606624 0.3208045
000020 58 0e 22 40 18 12 d5 3f 87 6c 21 41 d3 ee 04 3f
       2.5321255 1.6646147 10.088996 0.51926917
000030 ea 94 66 40 e5 d6 01 41 69 78 c7 3f 19 52 e4 3f
       3.602839 8.1149645 1.5583621 1.7837554
000040 4e d6 c1 3f 22 f9 ad 3f 48 81 86 40 48 32 6d 40
       1.5143526 1.3591654 4.2032814 3.706194
000050 3d b5 ac 3e 9e d9 81 40 a4 55 cd 40 eb e2 7d 3f
       0.33732024 4.0578146 6.416704 0.99174374
000060 95 1b bd 3f 9a d6 da 3f 66 0b 71 40 48 d5 05 41
       1.4774042 1.7096741 3.7663207 8.364571
000070 6e 71 1c 40 e8 80 e4 3f 00 3b 76 41 3e 25 32 41
       2.4444232 1.7851839 15.389404 11.134092
000080 ea 2d 9e 3f f8 43 91 41 be 67 3a 40 e8 2a 0f 40
       1.2357762 18.158188 2.912582 2.2369938
000090 db 8d 90 3e 7e 81 c1 40 4d 68 14 41 88 bc ac 3f
       0.28233227 6.047057 9.275464 1.3495035
0000a0 25 62 ee 40 c5 f5 a5 3f a4 07 9a 3f 98 41 0b 41
       7.4494805 1.2965628 1.2033582 8.703514
0000b0 0d ec 4a 3f f2 64 16 40 7b 85 45 3f 3c ca 35 41
       0.79266435 2.3499112 0.771568 11.361874
0000c0 94 0e 35 40 28 9f 38 41 34 48 82 40 3c a8 9f 3e
       2.8290148 11.5388565 4.071314 0.3118304
0000d0 80 4a f8 40 9c ee 95 3f 1f 12 48 40 5b 51 a8 3f
       7.759094 1.1713443 3.126106 1.3149828
0000e0 38 ef 89 3f f9 98 ce 3f 36 74 f0 3f ed b2 6b 41
       1.0776129 1.6140434 1.8785465 14.731183
0000f0 41 1c 27 40 f3 0e c4 40 39 d6 55 3f b3 d2 c5 40
       2.6110995 6.126825 0.8353 6.18197
000100 54 a0 7d 3f ec d3 1f 41 dd af 41 41 0c 90 e5 3f
       0.99072766 9.989239 12.105435 1.7934585
000110 64 80 de 3f 21 f4 4d 41 77 09 96 3f 1f d4 0a 3f
       1.7382932 12.872102 1.1721638 0.5422992
000120 bf dd 64 40 2b 4f 54 3f 59 77 d1 40 66 8b 4e 3f
       3.5760343 0.829333 6.545819 0.80681455
000130 a7 32 0d 40 95 d3 27 40 91 4a e1 40 6f a6 e0 40
       2.2062166 2.622289 7.0403523 7.0203166
000140 d8 bd 07 3f 11 59 48 41 7d 06 20 40 98 2b 4d 40
       0.53024054 12.521745 2.500396 3.2057858
000150 26 66 c3 3f b5 97 89 3f ae 54 aa 3e 54 84 f0 3f
       1.5265548 1.0749422 0.3326773 1.8790383
000160 e0 c5 71 3f d7 e9 72 3f a1 ad 0d 41 79 df 81 3f
       0.9444256 0.9488806 8.85489 1.0146323
000170 89 ba e0 40 c9 08 c0 3f f8 e8 ec 3f fe 96 51 40
       7.0227704 1.5002681 1.8508596 3.2748408
000180 15 37 56 3f 5e a3 08 40 dc c9 a7 40 2f b5 82 41
       0.836778 2.1349711 5.243391 16.338469
